outputs/reward_model/checkpoint-10/value_head.pt (torch, 6013 bytes, 1 tensors)

weight f4 [1, 1024]
000000 8e 0b 89 3b 9f 00 8c 3c 59 a7 c7 3c c6 82 92 3b
       0.0041822856 0.01709014 0.02437179 0.004471156
000010 4c 9a a4 3b f0 d1 29 3c 00 43 86 bb 19 e3 79 3c
       0.0050232764 0.010364994 -0.0040973425 0.015251898
000020 6e 2c 3f ba da 80 09 3c c6 82 7f 3c 8a 10 b7 3b
       -0.00072926923 0.008392537 0.015595144 0.0055866884
000030 9c 72 a1 3b 92 53 9b 3a 5b e3 c2 3c 3d 57 7f bc
       0.0049269926 0.0011850467 0.023790052 -0.015584764
000040 ff dd 8c bc a3 05 f3 bb 37 b2 46 bc e2 07 82 3c
       -0.0171957 -0.0074164434 -0.012127451 0.0158729
000050 04 c0 b1 3b 25 57 06 3c fa 5e b0 3c 4c 2f 7e bb
       0.0054245014 0.008199488 0.021529663 -0.0038785515
000060 23 a3 9d 3b 5a 9d a0 3b 49 b3 c2 bc f0 dc 21 3c
       0.004810707 0.0049015703 -0.02376713 0.009879336
000070 27 c7 ca bb 03 35 d8 bb e9 f2 8b 3b 8a 96 fa bb
       -0.0061882916 -0.0065981164 0.0042709005 -0.00764734
000080 61 ea 61 3c 28 ce 54 bc a8 bf b4 bc af b7 52 39
       0.01378879 -0.012988605 -0.022064045 0.00020095588
000090 55 cc 39 3b d8 ca 01 bc 81 72 f9 bc 2f 90 c0 bc
       0.002835055 -0.007921897 -0.030450108 -0.023506252
0000a0 d9 82 57 bb 67 44 24 bb f6 f1 09 3b f8 81 1b bc
       -0.0032884388 -0.0025065185 0.002104876 -0.009491436
0000b0 09 84 32 bc 69 27 c5 3b ea ff 13 ba 92 c7 1e 3a
       -0.010895737 0.006016661 -0.0005645739 0.000605696
0000c0 9c 5e ab 3a 4e 68 ca bc c9 29 25 bc b7 87 2e 3c
       0.001307446 -0.02470794 -0.010080763 0.010652474
0000d0 ca d3 6d bc 35 c3 6d bb 2d d3 16 3c 62 8e 8a b9
       -0.0145158265 -0.0036279683 0.009205622 -0.00026427495
0000e0 ff b8 dd bb 5d 93 41 3b 8a 9f 8e bb cf 74 a1 bb
       -0.006766438 0.0029537298 -0.0043525146 -0.0049272547
0000f0 02 a5 9a ba 12 c1 5f 3c 59 96 48 ba d5 d8 57 3c
       -0.0011798444 0.013656871 -0.0007651798 0.013174255
000100 77 1e 0d 3c 5e d9 12 bc 86 fa 75 3b d7 db 08 bc
       0.00861322 -0.008962957 0.0037533357 -0.008353195
000110 8a 0b 10 bb b7 8f e9 3b 39 19 d2 38 ac ed f7 bb
       -0.0021979534 0.007127728 0.000100182784 -0.0075661745
000120 80 9c 6d bc dd 16 67 bc d8 c8 a0 3c 2a 04 c6 bb
       -0.014502645 -0.014104572 0.01962702 -0.006042977
000130 79 ab 03 bb 6f 5b f3 3a 43 8c 19 ba 82 82 8e bc
       -0.002009122 0.0018566678 -0.00058573874 -0.017396215
000140 6c 62 29 bc 52 87 1c 3c 08 db b5 3b 31 8b 04 3c
       -0.010338407 0.009553747 0.005549792 0.008089826
000150 d1 92 b7 bc 97 b9 a3 3b e9 e5 12 bc ef 0f 15 bb
       -0.022408875 0.0049964893 -0.008965948 -0.0022745093
000160 ad 88 1f 3c fa b4 2a bc 17 59 8e bc aa ba ea bb
       0.009737176 -0.010419125 -0.017376466 -0.0071633654
000170 3f 1c 8e 3c d3 3b 76 3c 17 8d b5 bb 2a 4d 1a 3c
       0.017347453 0.015028912 -0.005540501 0.009417811
000180 97 a3 d9 3b 61 91 43 3c 94 09 1b ba 90 1d a3 bc
       0.006641816 0.0119365165 -0.0005914208 -0.019911557
000190 0a 7d 2f bc d2 cb 10 bc da a6 ab 3c 0f 87 a2 bb
       -0.010710964 -0.008837657 0.020953584 -0.004959948
0001a0 46 55 f7 3b 27 aa e7 3b 7b 79 79 3b e6 fd 47 3c
       0.007548007 0.0070698443 0.0038066793 0.01220653
0001b0 9e 2f 12 3c c3 2a 58 bb 72 4f 18 bc 69 47 0f 3c
       0.008922486 -0.0032984472 -0.009296285 0.008745053
0001c0 d3 d5 dc 3b 8e f1 99 ba 2c 11 ab 3b 65 f1 08 bb
       0.006739357 -0.0011744963 0.005220553 -0.0020895835
0001d0 e5 fd ee 3a 6f 5f 03 bc e7 88 87 3c f6 f4 46 3c
       0.0018233625 -0.008018359 0.016544772 0.012143364
0001e0 30 26 5d 3c 13 d9 56 bb 26 4c aa 3b d1 88 77 3c
       0.013497874 -0.0032783195 0.005197066 0.015108303
0001f0 c4 58 33 bc c9 cc a5 3b 47 dd 6c 3c 11 1d 66 b9
       -0.010946456 0.0050598127 0.0144570535 -0.00021945337
000200 fb 6a 8b 3c bc 7c d7 bb 47 7b 0e 3c 26 4f 98 bc
       0.017018786 -0.006576149 0.008696384 -0.018592428
000210 0e 03 d5 3b af 5a 28 3b 3e 65 98 bc fd 59 76 bb
       0.0065006083 0.0025688817 -0.018602964 -0.0037590258
000220 e3 6a 8e 3b 90 e0 35 3b f4 ab 0b bc 8f ff 34 bb
       0.004346238 0.0027752258 -0.008524884 -0.0027618145
000230 9e 02 31 bc 16 ce ce 3a 32 86 4b bc 91 d1 6d bb
       -0.010803847 0.0015777971 -0.012422131 -0.0036288241
000240 af 64 d8 3b 55 53 c2 3c 40 aa 5f b9 15 e4 ae bc
       0.0066037993 0.023721376 -0.0002133036 -0.021348992
000250 41 18 06 3b b5 36 d4 b8 23 c6 6b bb 0e 7d f7 bb
       0.0020461234 -0.00010119138 -0.0035976253 -0.0075527495
000260 01 52 f5 3a 86 9c 05 bc 4c 57 62 3b a6 db d0 bb
       0.0018716456 -0.008154994 0.0034536896 -0.0063738404
000270 d9 58 91 3c 66 73 8d 3b 32 ea e6 ba 0e ac 9f 3b
       0.017742561 0.004316735 -0.0017617403 0.0048728054
000280 62 74 13 ba 03 c1 15 bb 24 e9 8a b9 19 65 c3 bc
       -0.00056249474 -0.002285064 -0.00026495114 -0.023851918
000290 f8 b1 13 3c b4 55 e5 ba 6c 6a 7e bc 0c a5 5b 3c
       0.009014599 -0.0017496855 -0.015528303 0.013406049
0002a0 74 28 58 bb b7 60 b4 3b 81 59 3a bb d0 81 b4 bb
       -0.0032983096 0.0055046934 -0.0028434696 -0.005508639
0002b0 7d ca 74 bc ed bf 2c bc ce 44 f5 ba 2b 5c 1c 3b
       -0.014940855 -0.010543806 -0.0018712522 0.0023858647
0002c0 5e ec c9 3b 84 a1 f6 3b d5 a6 ad bc d2 e4 c7 3a
       0.0061622104 0.0075265784 -0.021197716 0.0015250689
0002d0 93 44 82 3b b6 10 25 3c d4 bf 51 bc e8 55 a9 bb
       0.00397546 0.010074785 -0.012802083 -0.0051677115
0002e0 6f 17 8f bb 6b f2 65 3b 1b a8 83 3b d9 e4 7a bb
       -0.004366807 0.003508712 0.0040178425 -0.0038283376
0002f0 0d cd ed bb 5f 13 5e bc 55 cf 37 bc 82 6a 89 bc
       -0.00725711 -0.013554423 -0.011218865 -0.01677442
000300 09 d1 85 bb 8d a1 e8 3b f6 a0 9d 3b 6e 44 da 3b
       -0.004083757 0.0070993365 0.004810448 0.0066609895
000310 82 9d 40 bc 5f 18 76 bc 26 05 81 3c 30 0f 62 bc
       -0.011756303 -0.015020459 0.015749525 -0.013797566
000320 32 27 01 bc bd e5 43 ba 66 62 5f bc d2 a4 c7 bb
       -0.00788288 -0.00074728933 -0.0136343 -0.006092646
000330 ad 2f aa 3b 60 c9 82 3b 41 30 0a 3c e8 91 34 3c
       0.0051936717 0.003991291 0.008434356 0.011021115
000340 2e a0 f3 bb b5 e4 f0 3b c0 26 c4 bb dc 38 3c bb
       -0.0074348664 0.0073514828 -0.0059860647 -0.0028720414
000350 6c 1c 7f 3a c9 34 1a bb a7 40 a4 bc 02 05 4a bc
       0.0009731713 -0.0023529998 -0.02005036 -0.0123302955
000360 52 31 ad 3a 00 02 09 3c 06 d8 8f 39 b1 44 00 3c
       0.0013213551 0.008362293 0.00027436035 0.007828877
000370 fc 40 09 b8 d0 68 39 3c 56 89 78 3c b7 9d b6 3c
       -3.2723867e-05 0.011316493 0.015169462 0.022292001
000380 9d 40 db bb 25 e7 5c 3b 4f c1 2a bc 7a a5 93 bc
       -0.006691052 0.0033707109 -0.010422065 -0.018023241
000390 c0 63 21 bc f3 e3 30 3c 24 2a 29 3c 51 81 5c bc
       -0.009850442 0.010796535 0.0103249885 -0.013458566
0003a0 1f ed d9 bc f8 b7 36 bb 70 d7 65 3b 29 97 9a 3c
       -0.026602326 -0.002788065 0.0035071038 0.018870907
0003b0 c9 95 23 bc b7 35 91 bc e4 4e 27 3a 84 32 65 bc
       -0.009984442 -0.017725809 0.00063823 -0.013989095
0003c0 1c 6e d0 bb 1d 33 09 3c 40 31 1d bc 83 33 76 3c
       -0.0063607823 0.008374003 -0.009594262 0.01502693
0003d0 38 b5 56 bc ef 1e 13 bc 28 87 01 3c 55 92 42 bb
       -0.013104729 -0.008979543 0.007905759 -0.0029689271
0003e0 e0 39 db bb f0 72 0a 3c 70 99 bc 3c 72 37 cb 3a
       -0.006690249 0.008450255 0.023022383 0.0015504195
0003f0 87 7f 6a 3c 3d 6c b2 bb 35 d1 e5 bb 30 df d3 3b
       0.014312631 -0.005445032 -0.007013465 0.006465815
